deep_learning_model.pth (torch, 9472 bytes, 5 tensors)

fc1.weight f4 [50, 7]
00000000: ebd1 3a3e 2d7a 02be ec01 d73d 6067 c8be
00000010: 9ce0 c93e 9136 d5be ffdc 873e 4da9 a0be
00000020: 4286 bc3e 2fab 75be b2f1 d73d 1d1c 3a3e
00000030: ccd0 b2be fade 73bd 0a8a 7fbd 3c95 5dbe
00000040: 6f86 fb3c e6b5 213d 0c7f b43e 6f52 2abe
00000050: 3a65 7f3d b75f babd 2dfb ccbe 34ea 393e
00000060: 89f1 803d 1a32 04be 0e80 a63d ec80 c73d
00000070: 35a4 963e e5a4 2d3e cc28 ccbb cae2 aa3b
00000080: 1e25 32bd bbb8 083c db38 a73e 5f77 c43e
00000090: bca7 30be 82c6 04bc a28d 94bd b5e1 3dbd
000000a0: dd29 98bd 29a4 573e 00a1 3ebe cdb9 9bbe
000000b0: bb84 833e 75ee 953e 04ad 613e ef07 dc3e
000000c0: 653e 833e 8051 d4be 0b30 dd3e b2e8 5b3e
000000d0: e654 ecbd 45ae 23bd 293d a13e 2a7e 133e
000000e0: a653 cfbc 5f00 9d3e 2e34 4e3e be30 3e3e
000000f0: aadf ccbe 9bfa 183e 1659 3a3c dfa2 0e3d
00000100: 3810 823e 9697 9ebe b914 68be 1f48 6dbe
00000110: 39ad d1be a45f 753d 2275 0d3d 6e2a 823d
00000120: fc3a d4bd 90d3 1dbe 7374 e63d c3e3 4e3e
00000130: 1081 12bd 0078 44be 4a8c 6b3c 4f72 92be
00000140: a09a 533e 0d37 ee3c 544a 9c3e 9595 933e
00000150: 8ac0 7fbd fe87 bc3e 9c40 e4be 1eff 32be
00000160: e713 963e 6a3c 2bbb 59af 4abe b151 ddbe
00000170: c04f c6be f1b1 da3d 2a7b ab3c 44cd 90bd
00000180: 1c11 1c3d 534a 6b3d 4bb2 c33e d234 8cbd
00000190: dc47 353e c89c ddbd 06c7 d1bc 02af 323c
000001a0: 5d24 b7be 6284 513e 8948 c5bd fc61 f73d
000001b0: da96 0b3e e550 82be c7b6 2b3e 7dbe 77be
000001c0: 6f47 cb3e b7e3 23be 5806 f53d 8de6 4c3e
000001d0: 15ff abbc b3bc 9ebe 6a0e 5cbe 628b d0be
000001e0: 27f7 b43e f815 853e 1f28 563e 4a83 c63e
000001f0: bed9 113e 053b 983e 9290 56be 748c b63e
00000200: 3d8d 2dbe 8e5e 0cbe 1114 c33d 2a44 a03d
00000210: d141 253e 0b12 8c3e 45bc 47bd 676c b73d
00000220: 9065 c2be 4102 0dbe 72d3 fabd 0852 21be
00000230: c4ad bfbd eddb 68be fbf0 3b3e 8f80 67bd
00000240: dc8e 663e 3b1d 2fbe efc8 2a3e 47be 26be
00000250: 7e35 083e 8eb1 debe 4345 283e 7dea 133e
00000260: 6649 e93d ef00 89be 3f15 b13c 8baf 9d3e
00000270: 44a2 ed3d b835 fb3d bc30 cabe 5669 29be
00000280: e145 84be 8818 893e 49d6 6c3d ed73 df3d
00000290: 6e88 b0bd 897e ce3d d0d0 d63e 059d 643d
000002a0: 8a6e 8a3e e93c f03e ba43 c23e af38 083d
000002b0: f7ba 77be 450f 8bbe 2b56 603d 97c7 78be
000002c0: 25ed 3fbe a6f1 04be f97f d7be 85ee 66bd
000002d0: 329a aabe 5b1f 56be e24d 593e 48d4 cfbd
000002e0: 45a1 323e c475 15bd a3ef 28bd 63e3 6a3d
000002f0: a14c 1fbe ab4b a6be 7ef6 c33e 4eae 90be
00000300: 15de 7ebe 5385 79bd c85f 28bd ab07 653e
00000310: 04da 2dbe 8186 d3be 9c45 ae3d ebff a3bd
00000320: 69c2 153e 8c95 d9be 6cd6 67be 6906 51bd
00000330: 8b1b 01be 39a6 2c3e b7f1 a63d 3023 bfbe
00000340: 4f3a 693e 1d4e a63e 974e 69be 5215 8b3e
00000350: 3ac0 a1be 7390 473d 6bdc b63e e303 5cbe
00000360: 9e1b 7fbe 5c39 2f3d 8472 a4be b46f ab3d
00000370: 6db3 31be fb7a 35be 9332 b4be 59f2 a13e
00000380: ae96 233d 79bb f0bd 82cf c9bd 550f ba3d
00000390: baf6 4f3c e093 f13e a140 53be d221 333e
000003a0: 755d a7be 8a66 673e 3ae5 aabe b420 7f3e
000003b0: 502a 98be 9ed0 d6bd 4ecd 7b3c e0cb dbbe
000003c0: a949 8d3e da25 15bd a785 01be 5227 2fbe
000003d0: c769 3dbe 2efc 03be 9a21 233c 876d 3fbe
000003e0: b4c8 f2bd 66b9 1c3e 2dd0 c4be 8afb 373e
000003f0: 844e ad3e d9b8 09be b4aa 973e 82e0 a0be
0.1824414 -0.12741919 0.104984134 -0.3914137 0.39429176 -0.41643193 0.26535794 -0.31379166
0.3682118 -0.23991083 0.105441466 0.18174787 -0.34924924 -0.05953882 -0.062387504 -0.2163896
0.030703751 0.039480112 0.3525318 -0.16633008 0.062352397 -0.091002874 -0.40035382 0.18155748
0.06296069 -0.12909737 0.08129893 0.09741387 0.29422155 0.16957434 -0.0062304493 0.0052150236
-0.04349243 0.008344824 0.32660565 0.38372323 -0.17251486 -0.008103969 -0.07253577 -0.04635783
-0.0742986 0.21058716 -0.18616104 -0.30415192 0.25687203 0.2928349 0.22038656 0.42974803
0.2563354 -0.4146843 0.43200716 0.21475485 -0.115396306 -0.03996112 0.31491974 0.14403597
-0.025308441 0.30664346 0.20137092 0.18573281 -0.40014392 0.14939348 0.011373779 0.034823295
0.25403 -0.30975026 -0.22664155 -0.23172043 -0.4095247 0.059905663 0.034535535 0.06355749
-0.10362813 -0.15412736 0.1125268 0.20204072 -0.035767615 -0.19186401 0.014376709 -0.28602836
0.20664454 0.029078985 0.30525458 0.2882506 -0.06243948 0.36822504 -0.44580543 -0.17480132
0.2931206 -0.002612854 -0.19793452 -0.43226388 -0.3873272 0.10678471 0.020932753 -0.07070401
0.038102254 0.057443928 0.38221964 -0.06846012 0.17703193 -0.10820919 -0.025607597 0.010905983
-0.3576993 0.20460656 -0.096329756 0.12079236 0.13631764 -0.25452343 0.16768943 -0.2419376
0.39702937 -0.16004835 0.119641006 0.20009823 -0.020995656 -0.3100334 -0.21489874 -0.4073134
0.35344812 0.25993323 0.20913742 0.3877204 0.14243218 0.29732528 -0.20953587 0.35654032
-0.1694841 -0.13707945 0.09525312 0.07825501 0.16138388 0.27357516 -0.048763532 0.08956223
-0.3796811 -0.13770391 -0.12247361 -0.15753949 -0.09359315 -0.22740145 0.18353646 -0.056519087
0.22515434 -0.17100994 0.16678213 -0.16283523 0.13301656 -0.43494838 0.16432671 0.14444919
0.11390953 -0.26758525 0.021616576 0.3079799 0.11603215 0.122661054 -0.39490306 -0.16544089
-0.25834563 0.26776528 0.057821546 0.10910783 -0.08619772 0.100827284 0.41956186 0.055813808
0.2703746 0.4692147 0.37942296 0.033257183 -0.24192415 -0.27160087 0.054769676 -0.24294887
-0.18742807 -0.12982807 -0.42089823 -0.056379814 -0.33320767 -0.20910399 0.21221116 -0.10147911
0.17444332 -0.036489263 -0.04124416 0.05734576 -0.15556575 -0.32479605 0.38273996 -0.28257984
-0.24889405 -0.060918164 -0.04110697 0.22366206 -0.16977698 -0.41313556 0.08509371 -0.08007797
0.14624943 -0.42496908 -0.22640389 -0.051031504 -0.12608163 0.16860284 0.08151572 -0.37331533
0.22776149 0.3248147 -0.22783886 0.27164704 -0.3159197 0.048721742 0.3571504 -0.21485858
-0.24912879 0.04277931 -0.32118618 0.08370915 -0.17353602 -0.17722695 -0.35194835 0.3163021
0.03993862 -0.117545076 -0.09854032 0.090849556 0.012693102 0.47183132 -0.20630123 0.1749337
-0.3268849 0.2259771 -0.3337801 0.24914819 -0.29719782 -0.10489009 0.015368773 -0.42928982
0.2759526 -0.03641305 -0.1264864 -0.17104843 -0.18497382 -0.12889168 0.009956742 -0.18694125
-0.11854687 0.15305099 -0.38440076 0.17967048 0.33848965 -0.1344942 0.29622424 -0.31421286

fc1.bias f4 [50]
00000000: e1cf 593e c678 c83e 9907 04be 4c0a 8f3e
00000010: f3ed af3e 050c ab3d efd2 943c 950a a53d
00000020: 92a5 863e d437 813e 78bc 753e 86b4 b2be
00000030: f0b7 a83e 210a 34be 12e5 b6bd 53d5 8abe
00000040: 1ed7 bf3e f1e9 f4bd 801d b23e 3c9a 5d3d
00000050: de15 cb3e 1a5e cc3d 4647 273d 9230 983e
00000060: 2698 a7bd 4e15 7d3e 476b 9f3d 7fc7 79be
00000070: deec 8d3e 9968 84be 175c 933d af42 80bd
00000080: 3e7f 663d 9ee8 393e cf6f a43d f9fb 02be
00000090: ebf8 39bd f429 47be 6aec e73d a270 923e
000000a0: 1289 9b3e bd1a edbd 6ee0 173e 181f 7bbe
000000b0: 04f2 0c3e 7656 343e 8f74 8abe 0e39 253e
000000c0: 8417 bebd bf14 e5bd
0.21270706 0.39154643 -0.12893523 0.27937543 0.34361228 0.08351902 0.018166987 0.08058659
0.26298195 0.25237906 0.23997676 -0.34903353 0.32952833 -0.17581989 -0.089304104 -0.27115878
0.3746881 -0.11958683 0.34788132 0.054102167 0.3966512 0.09978886 0.040839456 0.29724556
-0.08183317 0.24715158 0.077841334 -0.24392508 0.27719778 -0.25861052 0.07195299 -0.06262719
0.05627369 0.18155143 0.08029138 -0.12791432 -0.045403402 -0.19449598 0.11324389 0.28601557
0.30378014 -0.115773655 0.14831707 -0.2452358 0.13764197 0.17611107 -0.27042052 0.16135046
-0.09281829 -0.11185598

fc2.weight f4 [25, 50]
00000000: af7e 08be 7f4c 553e 55e1 0ebe 2be9 24bc
00000010: 30d9 9abd d248 853d e292 debc 2336 f23d
00000020: 4d79 693e 2945 443e 9341 5fbb a116 5f3c
00000030: 0861 123e 80f2 50bd e3ed 2bbe f390 a6bd
00000040: 7b33 8b3d 0b5c 583e 2cb1 b7bc 3a14 4d3d
00000050: 48de 4cbb 60db 313e dcc8 013e 3359 e5bd
00000060: b5b1 e33b 18b6 65bc 1491 193a 1c50 c63d
00000070: f93f 973d 2011 823d 7c90 f63d 8660 1bbe
00000080: 5c45 5a3d 5eb1 48bd 5ba2 e23c 6f59 0f3e
00000090: 0197 983d 58fb 993c 47af a2bd e078 d9ba
000000a0: 5d3b 473c 2bc1 a4bc 4163 88bd 67d8 0abc
000000b0: 61ab b73d e42d fb3c 2311 52be 8d38 94bd
000000c0: 5a52 44be 7922 d13c a051 22be 36fe 1c3d
000000d0: 2c8e 01be ab91 b43c 634b 9ebd a7dc 963c
000000e0: d1c9 d0bd a784 743e 00b4 fe3d 58e0 f9bb
000000f0: 8acd 393e c373 16be 63bf 523e dde6 69be
00000100: f982 2abe de28 d5bd c136 f13b af42 153e
00000110: e065 3c3d 4f02 fb3c 59ab 9f3d 5397 a3bc
00000120: ca35 713d aae4 943d dfc3 d93d c437 333e
00000130: f217 35be 0bd2 3d3e c340 0ebd 644f e03d
00000140: 82dc 083e 9609 9f3c 026d babd eb29 01be
00000150: 1057 4bbe 3f60 9d3d 06a8 27bd 12f9 323d
00000160: 8aec bb3b d1a1 ec3d 8f8f 0ebb 95e2 36be
00000170: ffaa 4e3d 9fa6 cc3d 6c2d a13d ca7a 9b3c
00000180: 29dd 2abe f613 5dbd 44eb 883c 1a41 193e
00000190: 96e4 303e 8eda 3dbe 5ff6 a9bc ee57 643c
000001a0: 2bcc 113d 3e17 93bd d819 193e b4ad 29bc
000001b0: 1ee4 99bc 9c59 863d d110 06bc 3220 403e
000001c0: 7827 cc3d fb1a 3d3e 631e f33d 0dc2 5bbd
000001d0: 00d2 4b3e 4535 0abe e8a8 1cbe 6a67 4a3e
000001e0: 2441 d53d b396 b8bc 9098 bfbd b093 2e3e
000001f0: 8e7c 31bd 0a0e 993d 3892 0d3d 470a d5bd
00000200: 1f4c 3f3e f877 963d 7b52 2ebe 97cd 713b
00000210: 427b 5e3e 4cb3 9dbc fb76 463b ed77 a93d
00000220: 26c5 e3bc 4b9d 3a3e 7bc6 c03d 8e8d 943d
00000230: 33f1 653b 0e16 683e e108 6bbd ba23 083d
00000240: ce38 353d f0da d2bc 627f 603e 69ac 2f3e
00000250: 5529 3c3b d638 0a3d 8b02 063e 2b53 853d
00000260: 10fb 00bc 27ea efbc 9f41 853d 589d 3b3b
00000270: 9fc8 493d 557e 76bc 8a5d e63c aca4 493d
00000280: 890a b6bc 1e27 7c3d 1a69 b43d 562f 103e
00000290: 0ce4 463e ab3d 95bd 13d3 0e3e ba66 59be
000002a0: 66eb e6bc 34b9 36bd 40ea d13d be32 45bc
000002b0: 761a f2bd e452 223e 2e90 d8bd 5d33 bb3c
000002c0: 1784 203c 4d27 153c 1100 9a3d f382 f43d
000002d0: bcea 24be 84a4 2a3e b0db 983d bd5b da3d
000002e0: 12e8 6cbc 1182 6cbd e182 993d 82a5 b6bd
000002f0: 7c7e debc 3552 803d 0975 98bb ee1c 2cbd
00000300: 68e3 133e ec01 7dbd 372e 1cbd d8f6 29bd
00000310: 7bf4 e93d fc39 a23d 9ec3 b33d 92a4 ae3d
00000320: 29d1 143e 1290 41bd 9852 393e b97a 373e
00000330: 13f1 443e 639b 443e bc81 053d a253 54bd
00000340: 5c88 ae3d 2100 bf3d e9dd b33b ca03 953d
00000350: 747e 043e 0e8d 453e 7c44 a33d 7c65 f3bc
00000360: 74e2 f03d bc0c b6bd 182d 3dbe 5370 323d
00000370: 4448 2f3e b299 9eb7 40ef e8bd f82b 6a3d
00000380: c9e6 353c 86e3 b0bd b2de 91bd 26fa 37be
00000390: 3747 d9bc 327c 033e d6f9 01be 88d7 053b
000003a0: e436 a03d 0901 c73c 8fd0 493e 3f9a b43d
000003b0: 44bf a4bb c20d 3f3e 07ec a63d 25a7 463e
000003c0: f15c bf3d 4cea 6b3e dc7a d53d d69f 13be
000003d0: 3401 1e3e 7713 fb3d 126f 6e3e 0e5a 853c
000003e0: f59f 7dbd 77c6 23be c12d 29bd 2db4 8e3c
000003f0: 35fc 2a3d 649e e4bb 4f27 c33d e574 86bc
-0.13329576 0.20829962 -0.13953145 -0.010065357 -0.075609565 0.0650803 -0.027169649 0.11826732
0.22800179 0.19167008 -0.0034066185 0.013616235 0.14294827 -0.051012516 -0.16789965 -0.081331156
0.067969285 0.21128862 -0.02242335 0.050068118 -0.003126042 0.17368841 0.12674278 -0.11198654
0.0069486746 -0.014020465 0.0005858105 0.096832484 0.07385249 0.063509226 0.12039277 -0.1517354
0.053288803 -0.048997276 0.027665308 0.1399896 0.07450677 0.018796608 -0.07943588 -0.001659181
0.012160149 -0.02011164 -0.06659556 -0.008474446 0.08968235 0.03066153 -0.2051435 -0.07237349
-0.1917204 0.025529133 -0.1585145 0.038328372 -0.1265189 0.022042116 -0.077292226 0.018415762
-0.101947434 0.23878728 0.12436676 -0.007625621 0.18144813 -0.14692597 0.2058082 -0.22841974
-0.16651525 -0.104081854 0.0073612635 0.14576219 0.045995593 0.03064075 0.07796354 -0.019969618
0.058889188 0.07270177 0.106330626 0.17501742 -0.17684916 0.18537156 -0.03472973 0.109526426
0.13365367 0.01941375 -0.09102823 -0.12613647 -0.1985743 0.07684373 -0.040931724 0.043694563
0.0057349848 0.115543015 -0.0021753048 -0.17859872 0.050456043 0.09992718 0.07869992 0.018979449
-0.16685928 -0.053974114 0.016713746 0.1496624 0.17274699 -0.18540403 -0.020747362 0.01393698
0.0355951 -0.071821675 0.14951265 -0.010356355 -0.018785533 0.065600604 -0.00818272 0.18762282
0.099684656 0.18467323 0.1187103 -0.053651858 0.19904327 -0.13496883 -0.15298808 0.19766012
0.10412815 -0.022532796 -0.09355271 0.17048526 -0.043331675 0.07473381 0.034563273 -0.10402351
0.18681382 0.07347101 -0.17023651 0.0036896223 0.21726707 -0.019250534 0.003028332 0.08274827
-0.027803969 0.18224065 0.09412857 0.07253562 0.0035086393 0.22664663 -0.057381514 0.033237197
0.044243626 -0.025739163 0.21923593 0.17155613 0.002871116 0.03374561 0.13086908 0.06510004
-0.007872358 -0.029286457 0.06506657 0.002862772 0.049263593 -0.015044768 0.028120775 0.04922931
-0.02222182 0.061560743 0.08809109 0.14080557 0.1942293 -0.07287153 0.13947706 -0.21230593
-0.028188419 -0.044610217 0.10249758 -0.012036024 -0.11821453 0.15851933 -0.10574375 0.02285164
0.009797118 0.009103608 0.07519544 0.11939039 -0.16105169 0.1666432 0.07463777 0.10662029
-0.014459627 -0.05774123 0.07495666 -0.08918287 -0.027159922 0.0626568 -0.0046526236 -0.042019777
0.14442217 -0.06176941 -0.03813001 -0.041495174 0.11423584 0.07921216 0.087775454 0.08527483
0.14532913 -0.047256537 0.18097913 0.17917909 0.19232588 0.191999 0.032594427 -0.05183757
0.08522102 0.093261965 0.0054891002 0.07276113 0.12938863 0.1929209 0.07972047 -0.029711477
0.117619425 -0.08889148 -0.18474233 0.043564152 0.17117411 -1.8906638e-05 -0.11373758 0.057170838
0.011102387 -0.08637147 -0.07122554 -0.17966518 -0.026523216 0.12840346 -0.12692961 0.0020422656
0.078229696 0.024292486 0.19708465 0.088184826 -0.0050276835 0.18657592 0.081504874 0.19399698
0.09343899 0.23038596 0.10423824 -0.14416441 0.15430146 0.12259572 0.23284557 0.016278293
-0.061920125 -0.15993677 -0.0413034 0.017419899 0.04174443 -0.0069768894 0.09528982 -0.016413162

fc2.bias f4 [25]
00000000: b2dd ea3d c1cd 80bd f117 163e bb67 533c
00000010: 25a9 ac3c 1068 bc3c eef3 a53d f3b0 7b3c
00000020: 7b06 d33d cf2e 873d 12c6 afbc 1d23 b33d
00000030: 7402 ce3d 8690 453e 5a49 423d 2a40 333e
00000040: d9c1 0d3e 09b5 95bc c4aa 40bd 38ce 3e3e
00000050: 8905 a23d 4b5b dbbc 6bb5 103d b6e7 44bd
00000060: a98a 633d
0.11468066 -0.062892444 0.1465757 0.012903149 0.021076748 0.02299884 0.081031665 0.015362012
0.103039704 0.06600725 -0.021456752 0.08746932 0.10059062 0.19293413 0.047433235 0.17504945
0.13843478 -0.0182748 -0.047037855 0.18633354 0.07911212 -0.02677693 0.035329264 -0.04807254
0.05555216

fc3.weight f4 [1, 25]
00000000: dd71 7e3e 8732 453e a322 1dbe 5ddc 6bbe
00000010: 4da5 6ebe 6daf 72be 39c5 093e f4db 133e
00000020: 8e59 463e c362 3abe 82f3 053e 3e58 ea3d
00000030: 3a8f bcbd 3b7f db3d 57fb 1a3e 8caa 72be
00000040: 7593 50be 5076 d4bd bd74 5e3c b0af 44be
00000050: 4bac 823e 8cae c8bd aa9c 223e 6ae1 843e
00000060: 5331 71be
0.24848123 0.19257556 -0.15345244 -0.2303328 -0.23305245 -0.23699732 0.1345414 0.14439374
0.193701 -0.18201737 0.13081172 0.11442612 -0.09207006 0.10717627 0.15134941 -0.23697871
-0.2036875 -0.10374129 0.013577637 -0.19207644 0.25522074 -0.09798917 0.15880075 0.25953227
-0.23553972
